final_projects/models/model1.pth (torch, 490631 bytes, 10 tensors)

conv1.weight f4 [32, 1, 3, 3]
0.31622216 0.09094754 -0.025661688 -0.068394616 0.1326822 -0.076641284 0.1288335 -0.32276568
-0.2361448 0.2747005 0.31710345 -0.22129333 0.25449514 -0.18724225 -0.14547308 -0.1558292
0.33141842 0.33213562 -0.28346148 -0.12571223 -0.39158008 0.36051625 0.04411343 -0.190794
0.09509359 0.22545393 -0.12952262 0.043395948 0.18390031 0.029370671 0.1871017 0.3182952
0.08637308 -0.2443794 0.050318114 0.11822598 0.24594203 0.1434113 0.30208623 -0.04938446
0.23264799 0.045024753 -0.104780406 -0.4961669 -0.06870376 -0.21559316 -0.25621563 0.38996246
-0.33581215 0.07667636 0.03984599 0.008807675 -0.08372425 0.40824217 0.002539995 0.38046226
-0.08379523 -0.073490754 0.026817616 0.1581414 -0.49914134 0.02130945 -0.17919247 -0.32414258
-0.12032031 0.3253275 -0.45924857 -0.19749162 -0.138857 0.24426685 -0.32318276 -0.2197074
-0.11502684 0.25289616 -0.20487966 0.31759053 0.2690844 0.1426022 -0.39666665 -0.16724333
0.13855228 -0.3649167 -0.29427347 -0.17934823 -0.16202252 -0.1180316 -0.13585183 -0.1052433
-0.085486345 -0.3748519 0.041377865 0.34353474 -0.22147791 0.033308934 0.3607784 -0.47873136
0.03487269 0.015966553 -0.41160718 -0.027214194 0.34012964 -0.20478109 -0.30887648 -0.41056103
-0.42042837 -0.50576425 -0.17268248 -0.20649086 -0.08521291 -0.4860726 -0.33635613 -0.4605723
-0.20371032 0.39713818 -0.21023975 0.35602835 0.19913681 0.17191842 -0.4688984 0.20926712
-0.05854364 -0.08012899 -0.36906967 0.38532656 0.06727684 0.20465413 -0.07497266 0.40962374
-0.097428784 0.27427244 0.07727757 -0.36949113 0.3152252 -0.2963211 -0.1739121 0.22763574
-0.18122864 -0.30618706 0.26500863 0.027105946 -0.24145177 0.068505585 -0.03838713 0.24635573
0.27486566 0.075287096 -0.0924128 0.2936469 0.30456892 0.2923387 0.15557985 0.07674882
0.011143558 -0.2545828 -0.4939043 0.07846049 -0.19996707 0.17814578 0.105434895 0.37664527
0.17914553 0.15849316 0.45601293 0.1777011 0.07601359 0.44858342 -0.053434506 -0.20296496
-0.06341929 -0.29502687 -0.48541614 -0.1433099 0.21037422 -0.17175527 0.018347114 0.21463256
0.36715162 0.33033964 0.05304393 0.26497394 -0.405586 -0.19375604 0.35648295 0.12558338
0.20839933 0.15908301 0.10335068 0.13219918 -0.4347837 0.28584272 0.059006575 0.34660435
0.0676865 -0.03217048 0.44204995 -0.31479293 -0.54055876 -0.28263986 0.26259637 0.345521
-0.0767838 0.36972263 -0.0682386 -0.22355342 0.14069282 -0.28921455 -0.27794144 -0.26362583
0.053672433 0.35284904 0.27272612 -0.053246707 0.20675564 0.30542767 0.1086446 -0.45467553
-0.041963357 -0.31728065 -0.2933649 0.34017166 -0.093205005 -0.1490334 0.2562986 0.3145622
0.021201795 0.2928405 -0.27565202 -0.22992519 0.36631545 0.25256148 -0.008440739 0.21015744
-0.017992768 -0.028306 0.3171167 0.23209955 0.01045875 0.072986096 0.13362673 -0.03946767
0.32291675 0.13767579 -0.25634384 -0.08524921 0.39124733 -0.34051093 -0.12680236 0.19130768
-0.07993525 -0.11863151 0.35672408 -0.24907225 -0.2335601 -0.4062958 0.011437432 -0.16154249
00000000: dfe7 a13e b442 ba3d 7638 d2bc 7a12 8cbd
00000010: d8dd 073e 1bf6 9cbd eeec 033e 8b41 a5be
00000020: f1cf 71be 8ba5 8c3e 625b a23e b89a 62be
00000030: 304d 823e 6fbc 3fbe e5f6 14be b191 1fbe
00000040: adaf a93e ae0d aa3e dd21 91be b5ba 00be
00000050: 2f7d c8be 9695 b83e 49b0 343d 815f 43be
00000060: 6ec0 c23d 65dd 663e 94a1 04be f3bf 313d
00000070: 5d50 3c3e c39a f03c 9797 3f3e 97f7 a23e
00000080: 5fe4 b03d 983e 7abe 5e1a 4e3d 7620 f23d
00000090: 3ad8 7b3e 69da 123e 0cab 9a3e 5c47 4abd
000000a0: 463b 6e3e e06b 383d 1c97 d6bd 9709 febe
000000b0: 8fb4 8cbd 74c4 5cbe b22e 83be 29a9 c73e
000000c0: 92ef abbe 7f08 9d3d 8c35 233d 114e 103c
000000d0: 9f77 abbd 1e05 d13e 0b76 263b f3cb c23e
000000e0: d59c abbd 5282 96bd 9eb0 db3c d2ef 213e
000000f0: 748f ffbe 2891 ae3c 3b7e 37be 04f6 a5be
00000100: 7f6a f6bd 5391 a63e a122 ebbe 3e3b 4abe
00000110: 8830 0ebe 1721 7a3e 3678 a5be fafa 60be
00000120: 3193 ebbd 9b7b 813e f9cb 51be 3a9b a23e
00000130: 6ec5 893e 5006 123e e417 cbbe d641 2bbe
00000140: a6e0 0d3e 5dd6 babe 03ab 96be 10a7 37be
00000150: 3be9 25be 8dba f1bd be1c 0bbe cd89 d7bd
00000160: 7713 afbd 97ec bfbe d67b 293d c9e3 af3e
00000170: 1bcb 62be f36e 083d f2b7 b83e 471c f5be
00000180: aad6 0e3d 4acc 823c 2dbe d2be 4df0 debc
00000190: 7925 ae3e 22b2 51be 0f25 9ebe 0e35 d2be
000001a0: 6342 d7be c479 01bf add3 30be 5772 53be
000001b0: 1b84 aebd 82de f8be df36 acbe 22d0 ebbe
000001c0: 7099 50be b255 cb3e 1749 57be 5949 b63e
000001d0: 85ea 4b3e 620b 303e 7313 f0be 1f4a 563e
000001e0: 75cb 6fbd ab1a a4bd b3f6 bcbe 8649 c53e
000001f0: 71c8 893d da90 513e 448b 99bd 34ba d13e
00000200: be88 c7bd 706d 8c3e b443 9e3d f12d bdbe
00000210: 3365 a13e 66b7 97be 0316 32be 5819 693e
00000220: 0094 39be 8dc4 9cbe 36af 873e 4a0d de3c
00000230: 223f 77be a84c 8c3d d33b 1dbd ad44 7c3e
00000240: 31bb 8c3e 1f30 9a3d ec42 bdbd e358 963e
00000250: 75f0 9b3e 6bad 953e 5350 1f3e 7c2e 9d3d
00000260: 7893 363c ad58 82be 06e1 fcbe e5af a03d
00000270: 2bc4 4cbe d96b 363e 40ee d73d a6d7 c03e
00000280: ed71 373e 084c 223e 877a e93e 47f7 353e
00000290: 03ad 9b3d baac e53e 24de 5abd 0cd6 4fbe
000002a0: f9e1 81bd c30d 97be 7788 f8be d5bf 12be
000002b0: 576c 573e 9de0 2fbe b04c 963c a3c8 5b3e
000002c0: 4cfb bb3e 4722 a93e 9844 593d aaaa 873e
000002d0: f8a8 cfbe fc67 46be ef84 b63e ee98 003e
000002e0: a266 553e a8e6 223e 85a9 d33d 395f 073e
000002f0: f89b debe fa59 923e e1b0 713d 2076 b13e
00000300: 389f 8a3d 31c5 03bd 5f54 e23e 8a2c a1be
00000310: 0f62 0abf 2cb6 90be 0873 863e 21e8 b03e
00000320: d340 9dbd 494c bd3e aec0 8bbd 30eb 64be
00000330: c711 103e ee13 94be 574e 8ebe f7f9 86be
00000340: a0d7 5b3d a1a8 b43e c2a2 8b3e 3819 5abd
00000350: c0b7 533e 0461 9c3e 0f81 de3d 3bcb e8be
00000360: c5e1 2bbd 9c72 a2be ed33 96be fb2a ae3e
00000370: 44e2 bebd 369c 18be 9239 833e 4c0e a13e
00000380: 63af ad3c 31ef 953e 4322 8dbe 8271 6bbe
00000390: b38d bb3e bd4f 813e 064b 0abc 8333 573e
000003a0: 9265 93bc fce1 e7bc 1f5d a23e 81ab 6d3e
000003b0: 2d5b 2b3c bc79 953d 72d5 083e daa8 21bd
000003c0: 5855 a53e e2fa 0c3e 803f 83be 2397 aebd
000003d0: 9251 c83e 7357 aebe 7ad8 01be 29e6 433e
000003e0: 18b5 a3bd 14f5 f2bd 8aa4 b63e cc0c 7fbe
000003f0: 612a 6fbe 0106 d0be 1164 3b3c 656b 25be

conv1.bias f4 [32]
0.21780336 0.027147705 0.16955861 -0.035719592 0.18320626 0.077710316 0.24873067 0.00046394585
-0.24603209 0.17634605 -0.16829488 0.21696511 0.055346727 -0.21638182 0.23873885 0.13331828
-0.2534966 -0.25147468 -0.0038143585 -0.20941892 -0.07175559 -0.22818795 -0.24758813 -0.2984259
0.17353447 -0.2136141 0.10733886 0.002262943 -0.010370596 0.24845466 -0.19717892 0.19400959
00000000: d807 5f3e dd64 de3c c6a0 2d3e b54e 12bd
00000010: 6c9a 3b3e 9626 9f3d 41b3 7e3e c23d f339
00000020: d6ef 7bbe 0f94 343e 7e55 2cbe 1a2c 5e3e
00000030: 40b3 623d 3293 5dbe f577 743e 9684 083e
00000040: 4eca 81be 4ac1 80be 51fa 79bb ea71 56be
00000050: 98f4 92bd 1aaa 69be be87 7dbe 48cb 98be
00000060: 05b3 313e a8bd 5abe 7ad4 db3d e24d 143b
00000070: 6fe9 29bc e66a 7e3e 45e9 49be 73aa 463e

conv2.weight f4 [64, 32, 3, 3]
-0.02472207 -0.004049428 0.12535931 0.033240423 0.096839406 0.0752613 0.036970776 0.012931436
-0.014410877 0.07351729 0.08478314 -0.045381323 -0.019053958 0.071294636 -0.046723396 0.009996558
-0.021426933 -0.018762046 -0.109112546 -0.100231186 -0.035845023 -0.06713932 -0.075149484 0.076655194
-0.07833939 -0.01700417 -0.0037958534 -0.02428621 -0.011521331 -0.030062549 0.0458192 0.021482637
-0.0653388 0.054842915 0.05075423 -0.035813086 -0.04914362 -0.025044998 -0.01602294 0.027485423
0.05722783 -0.0248399 0.023233384 -0.052001473 -0.03407011 0.10066763 0.054298922 -0.057410486
0.022997245 -0.10005745 0.004070767 -0.008718615 -0.14673166 -0.058210563 -0.04803374 -0.061036397
0.07349169 -0.08384937 -0.067862675 -0.017536925 0.026350314 0.0076912935 -0.024235278 -0.11920294
-0.10136539 -0.012731977 -0.07045564 -0.11558678 0.06616687 -0.008102816 -0.019248536 0.060406696
-0.0030377796 -0.049227703 -0.042374555 0.03326757 -0.046681378 -0.12889895 -0.02301133 0.034287553
-0.07728031 0.026378887 -0.14466473 -0.017920356 -0.067712404 0.0051655658 0.07182327 -0.09162627
0.027794635 0.07244747 0.15607187 0.12797722 0.13553858 0.056680363 0.033107616 0.026982574
0.052881785 0.026060931 0.03678135 0.027959317 -0.10870419 0.057900455 -0.0931019 -0.010957421
0.041432254 -0.037334822 -0.016596805 0.06148843 0.07829842 0.0862684 -0.007800503 0.06801163
-0.12915166 -0.01991439 -0.053033065 -0.12513316 -0.0373284 -0.10392811 -0.004918805 -0.04678423
-0.2147074 -0.0023185357 0.034352068 -0.10771993 0.057268683 0.04942392 -0.032161005 0.116212495
0.11691881 0.071135126 -0.0005031433 0.026790349 0.07273625 0.041906048 -0.007547456 -0.12130716
0.100509174 0.048723444 -0.087457456 0.10468137 0.011165433 0.059278633 0.090344176 0.0031467828
-0.013639863 0.101070344 -0.007285013 0.021798972 0.000537218 -0.083934754 0.03773662 0.07537601
-0.07011254 -0.0486831 -0.0070058005 -0.11102217 -0.038191695 -0.14980261 -0.08131833 -0.08385258
-0.09705086 0.04177399 -0.094480805 0.045225758 0.13517503 -0.035863213 0.08833174 0.07231475
-0.022401616 0.07351337 0.023752881 0.06277625 -0.014782326 -0.02216431 0.0083070295 0.05174738
-0.06482817 0.016285032 0.017887505 -0.011826647 -0.0054508746 0.06396662 -0.07127546 0.109989144
-0.00821876 -0.10593299 0.0131981075 -0.11919897 -0.023894537 -0.22402708 -0.099568106 0.0029757835
-0.07307463 -0.14926466 0.004735337 -0.08138117 0.025441872 0.0072820433 0.019786779 0.10948473
0.10019291 0.10120685 0.124566555 0.027416773 0.031036789 0.0425931 -0.04980573 0.05540252
0.033270888 -0.031059477 0.009803962 0.03116823 -0.071850546 0.040937763 -0.0389831 -0.10426176
-0.13677107 0.040319383 -0.009318961 -0.161053 -0.002327988 0.07038801 -0.004540536 -0.008420956
0.05641265 -0.010336475 0.040251337 0.06378239 0.046117947 0.06330313 -0.040900573 0.005233954
0.034834303 -0.071270645 0.0020208447 0.057270225 0.09858444 0.06464929 0.08167717 -0.009991715
0.066160634 0.09346173 -0.013997937 0.09623436 0.09180127 0.027183747 0.001988283 0.13223237
-0.0001210912 0.044403635 0.026975589 0.06936171 -0.007922007 -0.042637497 -0.036037505 -0.10985466
00000000: f085 cabc 10b1 84bb 315e 003e 1c27 083d
00000010: bd53 c63d 9922 9a3d ab6e 173d 60de 533c
00000020: 991b 6cbc 3c90 963d c8a2 ad3d c4e1 39bd
00000030: 0c17 9cbc ec02 923d 0861 3fbd 9ac8 233c
00000040: 8987 afbc ddb2 99bc 6676 dfbd 0246 cdbd
00000050: 3bd2 12bd 5780 89bd f9e7 99bd 66fd 9c3d
00000060: 6770 a0bd 544c 8bbc dac3 78bb e0f3 c6bc
00000070: f7c3 3cbc bc45 f6bc eaac 3b3d 5bfc af3c
00000080: 59d0 85bd f7a2 603d abe3 4f3d beb0 12bd
00000090: d24a 49bd 2b2b cdbc 8a42 83bc 1c29 e13c
000000a0: bb67 6a3d 0c7d cbbc f053 be3c 7fff 54bd
000000b0: 1a8d 0bbd d52a ce3d 8c68 5e3d 4227 6bbd
000000c0: b864 bc3c ecea ccbd 1264 853b 86d8 0ebc
000000d0: d340 16be 336e 6ebd 07bf 44bd 4d01 7abd
000000e0: d082 963d 38b9 abbd 96fb 8abd 99a9 8fbc
000000f0: 9ddc d73c 3f07 fc3b 1089 c6bc ac20 f4bd
00000100: a898 cfbd c899 50bc 0c4b 90bd c3b8 ecbd
00000110: 7f82 873d acc1 04bc 1baf 9dbc 036d 773d
00000120: 7c15 47bb fda2 49bd f190 2dbd 9343 083d
00000130: f934 3fbd 16fe 03be 4282 bcbc 1b71 0c3d
00000140: 2445 9ebd 8918 d83c fe22 14be b6cd 92bc
00000150: cdac 8abd e843 a93b 1418 933d 8ea6 bbbd
00000160: 93b1 e33c 575f 943d 4ed1 1f3e 760c 033e
00000170: a0ca 0a3e ab29 683d da9b 073d 8f0a dd3c
00000180: 929a 583d bc7d d53c 0aa8 163d f00a e53c
00000190: 4da0 debd 0729 6d3d 35ac bebd c186 33bc
000001a0: deb4 293d 66ec 18bd 06f6 87bc 4bdb 7b3d
000001b0: ec5a a03d 7dad b03d 5d9b ffbb ae49 8b3d
000001c0: 5540 04be 8123 a3bc 3339 59bd e822 00be
000001d0: aae5 18bd 43d8 d4bd ed2d a1bb d2a0 3fbd
000001e0: 42dc 5bbe 93f2 17bb c1b4 0c3d 449c dcbd
000001f0: 9192 6a3d bd70 4a3d 42bb 03bd d100 ee3d
00000200: 2173 ef3d 4baf 913d 60e5 03ba 6f77 db3c
00000210: bef6 943d ada5 2b3d a650 f7bb e36f f8bd
00000220: c1d7 cd3d 3c92 473d e51c b3bd 3063 d63d
00000230: 38ef 363c 27ce 723d 5e06 b93d 413a 4e3b
00000240: bb79 5fbc f8fd ce3d 1eb7 eebb c293 b23c
00000250: 17d4 0c3a fce5 abbd b791 1a3d bd5e 9a3d
00000260: 2a97 8fbd ee67 47bd ea90 e5bb 975f e3bd
00000270: e56e 1cbd db65 19be 398a a6bd e7ba abbd
00000280: 9ac2 c6bd 341b 2b3d 277f c1bd a53e 393d
00000290: 536b 0a3e 4ee5 12bd 45e7 b43d c119 943d
000002a0: 9883 b7bc 2d8e 963d 6795 c23c d690 803d
000002b0: 9231 72bc ed91 b5bc 351a 083c 10f5 533d
000002c0: a2c4 84bd 3068 853c d188 923c 8ec4 41bc
000002d0: 409d b2bb ee00 833d def8 91bd fd41 e13d
000002e0: faa7 06bc 65f3 d8bd e03c 583c 971e f4bd
000002f0: 7abe c3bc 5b67 65be 5dea cbbd 5d05 433b
00000300: 27a8 95bd d6d8 18be e32a 9b3b 2cab a6bd
00000310: 796b d03c 359e ee3b e217 a23c 8839 e03d
00000320: f131 cd3d 8945 cf3d c01c ff3d 2499 e03c
00000330: dd40 fe3c 1a76 2e3d 1801 4cbd c1ed 623d
00000340: 0e47 083d 7270 febc cca0 203c 8454 ff3c
00000350: 6126 93bd 5bae 273d beac 1fbd 3187 d5bd
00000360: b70d 0cbe f025 253d 8eae 18bc 14eb 24be
00000370: 2891 18bb 9727 903d c7c8 94bb 0df8 09bc
00000380: f310 673d 525a 29bc 96de 243d 57a0 823d
00000390: 2ce6 3c3d 12a5 813d 5c87 27bd 9781 ab3b
000003a0: 6aae 0e3d 58f6 91bd 2670 043b 2f94 6a3d
000003b0: a4e6 c93d d966 843d 5c46 a73d 4ab4 23bc
000003c0: 3a7f 873d dd68 bf3d 9a57 65bc 8516 c53d
000003d0: 4e02 bc3d 73b0 de3c da4d 023b ec67 073e
000003e0: 58f2 fdb8 96e0 353d e9fb dc3c 830d 8e3d
000003f0: 4ecb 01bc a8a4 2ebd 109c 13bd 7bfb e0bd

conv2.bias f4 [64]
0.01773782 0.04890979 -0.046131793 -0.017900253 0.001704342 -0.05007014 -0.0022713088 0.027237698
0.009082112 0.014657708 -0.013364954 -0.0624198 -0.07006524 0.05076675 0.011125481 -0.02062997
0.018749138 0.041284595 0.012697203 0.054700542 0.016583243 -0.031576436 0.07525321 0.031174216
0.023272365 -0.023125395 0.01889146 0.00822997 -0.08001389 -0.10226384 0.03443444 -0.00085332297
-0.045670524 -0.04783065 -0.050778143 -0.032701693 -0.07075619 0.0128264325 0.026503066 -0.04060392
0.040583927 -0.06638949 0.010228205 -0.036938462 0.00439947 0.00016724903 0.034771908 0.0045773755
0.04781588 -0.037702166 -0.061548885 0.020082485 0.034169707 -0.057825513 -0.021297915 0.020276496
-0.06414171 -0.06168683 0.03175277 0.015517409 0.000119421245 -0.046905443 -0.0031100514 -0.0014602421
00000000: e84e 913c a255 483d b1f4 3cbd 8da3 92bc
00000010: 3a64 df3a 5916 4dbd 3dda 14bb 9821 df3c
00000020: 24cd 143c e226 703c aef8 5abc e7ab 7fbd
00000030: 5d7e 8fbd ccf0 4f3d a647 363c 2f00 a9bc
00000040: cb97 993c 091a 293d ee07 503c ad0d 603d
00000050: 95d9 873c 4b56 01bd 5b1e 9a3d 1261 ff3c
00000060: b0a5 be3c 7871 bdbc 43c2 9a3c ffd6 063c
00000070: 53de a3bd b46f d1bd 210b 0d3d 89b1 5fba
00000080: 0411 3bbd 12ea 43bd befc 4fbd 36f2 05bd
00000090: 9fe8 90bd f525 523c f51c d93c 4c50 26bd
000000a0: 553b 263d 37f7 87bd 3394 273c c94c 17bd
000000b0: 6e29 903b 925f 2f39 fd6c 0e3d cffd 953b
000000c0: 96da 433d 966d 1abd af1a 7cbd 0684 a43c
000000d0: 89f5 0b3d 72da 6cbd f778 aebc e51a a63c
000000e0: bb5c 83bd 54ab 7cbd 310f 023d bb3c 7e3c
000000f0: cb71 fa38 ec1f 40bd 01d2 4bbb 9865 bfba

conv3.weight f4 [64, 64, 3, 3]
0.07440169 0.0030505888 -0.0027265842 0.053196408 0.040698107 -0.002061503 0.08105527 0.016469497
0.0018365441 -0.009572459 0.020346899 0.027243342 0.030542737 0.017799815 -0.081513256 -0.067263946
-0.056829304 -0.05708589 -0.048715517 -0.06579961 0.04844485 0.009325755 -0.08158744 -0.0118404515
0.010128994 -0.022334218 -0.02303312 -0.123976655 -0.03517503 0.006215233 -0.09427378 -0.09968988
-0.061875388 0.0047087357 0.029340759 0.052414145 -0.00047969347 -0.05063593 -0.076639116 -0.017580982
0.014473776 0.040579345 -0.027577689 0.045448016 0.044682987 -0.008434673 -0.0017770302 -0.08552588
0.023792552 -0.05125385 -0.023621071 0.030731143 0.01689061 -0.0062371716 -0.03343706 -0.09149105
-0.05000209 -0.03296169 -0.0063667 0.011340874 0.07895014 0.052364588 0.07962405 -0.032387044
-0.04326836 -0.01901764 0.008882137 0.0014296813 0.05439629 0.056057762 -0.016127221 -0.01939264
-0.036125578 -0.057361864 0.010737598 -0.08829418 -0.045810804 -0.08462882 0.010855964 0.01622074
0.019939367 -0.032343015 -0.04300461 -0.06718221 0.02315388 -0.017124776 0.041706394 0.004570727
0.062156796 0.05304273 -0.013870846 -0.07251935 -0.016277626 0.02762306 0.026231326 0.010284476
0.038856104 0.046734847 0.03841091 0.01225191 -0.06626216 0.019296605 0.05148108 0.02610791
-0.023902167 0.03945519 0.027969088 -0.005167458 0.021945795 0.008446853 -0.09296044 0.003646584
0.035436843 0.087380886 -0.0045182854 -0.016889412 -0.033437997 -0.018148372 -0.049166456 -0.037012298
0.025137627 -0.0020631524 0.01054188 0.02233527 -0.0017644864 0.008388983 0.016962243 -0.021360926
0.044053473 0.0025980636 0.016503455 0.012922537 0.059317198 0.05904394 0.0013853369 -0.0649699
-0.052743997 -0.029912133 -0.06596975 -0.06665279 -0.061683293 0.045848764 0.027323088 0.035537947
0.0009620031 0.021686302 0.01527129 0.064407274 -0.024069805 -0.044787083 -0.0059899674 0.0004264813
0.06465325 0.014437255 -0.038874615 -0.062471982 -0.062758446 0.01557815 0.029203344 -0.022084367
0.038077272 0.04729857 -0.08989574 -0.09300184 -0.002750008 -0.0460938 0.029554883 0.030844674
0.08367925 0.02725486 0.058928832 -0.014267142 -0.112504266 -0.003570577 0.04787037 -0.032804377
-0.0007177727 0.038043655 -0.007178841 0.011173501 -0.10000465 -0.04945825 -0.018879069 -0.07027302
-0.09244689 -0.029347027 0.00759315 0.01612529 0.063780755 -0.06254776 -0.10325657 -0.029837113
-0.010765234 0.024880098 0.031904336 0.027939832 0.023467066 -0.0013810924 -0.009786861 -0.015150323
0.051738836 0.03145694 -0.015326124 -0.026009489 0.06461616 0.0035093299 -0.062831454 0.004571932
-0.07015794 0.029368902 -0.0035536953 0.03514248 -0.01599083 0.04276475 0.06121861 0.021461083
0.01595817 -0.08328819 0.033489514 0.03010247 -0.052169528 0.026753878 0.055639185 -0.04918919
0.035573978 -0.1782988 0.039547656 0.14856277 -0.09417224 -0.061737664 0.046323676 0.040496625
0.031311404 0.04912724 -0.098492034 -0.06473035 0.091184944 -0.12786563 -0.014386864 0.03134976
0.016377395 0.016589047 0.0034831227 0.012372212 -0.050801918 -0.0691095 0.04129432 0.04695931
-0.0029550008 0.026446031 -0.016845645 -0.017839776 -0.04170289 -0.022967892 -0.05625859 -0.0005911331
00000000: ea5f 983d 63ec 473b 7eb0 32bb 7ae4 593d
00000010: 0fb3 263d 481a 07bb 4e00 a63d 0aeb 863c
00000020: 32b8 f03a ced5 1cbc 8aae a63c 6e2d df3c
00000030: c334 fa3c ebd0 913c 6cf0 a6bd aec1 89bd
00000040: d8c5 68bd e5d2 69bd ec89 47bd f2c1 86bd
00000050: 1b6e 463d 0dcb 183c 5117 a7bd 74fe 41bc
00000060: 14f4 253c 40f6 b6bc f4af bcbc 79e7 fdbd
00000070: b113 10bd 27a9 cb3b 9d12 c1bd 352a ccbd
00000080: 0c71 7dbd bd4b 9a3b 085c f03c 37b0 563d
00000090: 5e7f fbb9 9f67 4fbd f8f4 9cbd fe05 90bc
000000a0: 6b23 6d3c 8736 263d 9bea e1bc b327 3a3d
000000b0: 8205 373d 9531 0abc 3deb e8ba 3128 afbd
000000c0: 99e8 c23c 8fef 51bd fa80 c1bc e1bf fb3c
000000d0: 2d5e 8a3c 3061 ccbb 4cf5 08bd a95f bbbd
000000e0: fece 4cbd d602 07bd c09f d0bb 13cf 393c
000000f0: 9cb0 a13d 407c 563d ef11 a33d 47a8 04bd
00000100: 2a3a 31bd e2ca 9bbc 6286 113c 2564 bb3a
00000110: a5ce 5e3d d39c 653d 3c1d 84bc 50dd 9ebc
00000120: 6af8 13bd 46f4 6abd c0ec 2f3c 94d3 b4bd
00000130: 1ca4 3bbd e051 adbd 37dd 313c 5be1 843c
00000140: e257 a33c 1c7a 04bd 9a25 30bd d496 89bd
00000150: 35ad bd3c 4249 8cbc 53d4 2a3d 09c6 953b
00000160: 2098 7e3d 5543 593d 8b42 63bc 0685 94bd
00000170: a858 85bc c149 e23c 14e3 d63c 3880 283c
00000180: 9427 1f3d 0a6d 3f3d c254 1d3d 3cbc 483c
00000190: 75b4 87bd ea13 9e3c d3dd 523d 41e0 d53c
000001a0: 7ace c3bc c49b 213d 6e1f e53c c853 a9bb
000001b0: abc7 b33c ab64 0a3c 0b62 bebd 87fb 6e3b
000001c0: 3926 113d c0f4 b23d 200e 94bb aa5b 8abc
000001d0: 48f6 08bd e5ab 94bc c462 49bd 359a 17bd
000001e0: 6ded cd3c f435 07bb d9b7 2c3c 75f8 b63c
000001f0: 5746 e7ba f271 093c 67f4 8a3c 1cfd aebc
00000200: 6a71 343d 4644 2a3b 4132 873c 0cb9 533c
00000210: 97f6 723d 0fd8 713d 3194 b53a f00e 85bd
00000220: 170a 58bd 4a0a f5bc 261b 87bd 4281 88bd
00000230: 9fa7 7cbd eacb 3b3d abd4 df3c 3d90 113d
00000240: ef2e 7c3a 79a7 b13c 6f34 7a3c f6e7 833d
00000250: 0a2e c5bc a972 37bd 7d47 c4bb 5a99 df39
00000260: ec68 843d 3d8a 6c3c fd3a 1fbd 9fe2 7fbd
00000270: 8087 80bd 7f3b 7f3c da3b ef3c 46ea b4bc
00000280: eaf6 1b3d 25bc 413d 421b b8bd c077 bebd
00000290: 7a39 34bb dacc 3cbd 151d f23c f8ad fc3c
000002a0: 0760 ab3d 9645 df3c 5c5f 713d bbc0 69bc
000002b0: a368 e6bd 5700 6abb b913 443d e25d 06bd
000002c0: e928 3cba aad3 1b3d 7c3c ebbb 0f11 373c
000002d0: 3dcf ccbd bc94 4abd 47a8 9abc 4deb 8fbd
000002e0: cc54 bdbd 2d69 f0bc f5cf f83b 2f19 843c
000002f0: 7c9f 823d 0a19 80bd 2e78 d3bd f66c f4bc
00000300: aa60 30bc 59d1 cb3c 1fae 023d 13e2 e43c
00000310: 013e c03c c505 b5ba 1259 20bc 0f39 78bc
00000320: 1aec 533d fed8 003d 6c1a 7bbc da11 d5bc
00000330: 7a55 843d c9fc 653b c7ad 80bd 25d0 953b
00000340: f7ae 8fbd 0d97 f03c 1de5 68bb 90f1 0f3d
00000350: 33ff 82bc 172a 2f3d 5dc0 7a3d 27cf af3c
00000360: b5ba 823c 0093 aabd 4d2c 093d 7599 f63c
00000370: b7af 55bd f32a db3c eae5 633d 9b7a 49bd
00000380: 05b6 113d f693 36be b9fc 213d d720 183e
00000390: 60dd c0bd a2e0 7cbd e5bd 3d3d cadf 253d
000003a0: 6340 003d a539 493d 31b6 c9bd 5991 84bd
000003b0: 2cbf ba3d 35ef 02be e2b6 6bbc 9b68 003d
000003c0: e329 863c c1e5 873c 1a45 643b d1b4 4a3c
000003d0: ac15 50bd 4889 8dbd 3c24 293d 6858 403d
000003e0: b0a8 41bb 59a5 d83c e1ff 89bc b924 92bc
000003f0: a6d0 2abd 2927 bcbc 686f 66bd 45f6 1aba

conv3.bias f4 [64]
-0.04204001 -0.023906572 -0.03874846 -0.020264197 0.010735881 -0.010969391 -0.0077699926 0.0054731234
-0.002158507 0.03204277 -0.015547808 0.02554022 -0.018997254 -0.048701208 0.00558946 0.02823004
0.0014018948 0.0454391 -0.050212383 -0.042070113 -0.0068235532 -0.035102837 -0.011560861 0.045640472
0.04738018 0.0269618 -0.021765439 -0.01290999 -0.047654774 -0.019649763 0.04890065 0.050396692
0.022850778 0.0288559 0.027104232 0.021227228 0.0156019945 0.02617178 0.009119659 -0.005402781
-0.029100472 0.006643121 0.022681283 -0.013664836 0.03608355 -0.032014616 -0.026219958 0.010607019
0.0016335212 0.044894658 0.07034299 0.011018108 0.010181333 -0.014289902 0.0010266508 -0.03048023
0.028725384 0.036386203 -0.02034257 -0.009891434 0.041052815 0.039862536 0.031827707 0.03345229
00000000: 2532 2cbd b7d7 c3bc b5b6 1ebd 1a01 a6bc
00000010: 8ce5 2f3c f6b8 33bc 6c9b febb e357 b33b
00000020: bd75 0dbb 483f 033d 3cbc 7ebc b939 d13c
00000030: 21a0 9bbc eb7a 47bd ca27 b73b af42 e73c
00000040: c9bf b73a 5a1e 3a3d 80ab 4dbd b651 2cbd
00000050: 1d98 dfbb fec7 0fbd c469 3dbc 81f1 3a3d
00000060: b811 423d fede dc3c 6f4d b2bc 6c84 53bc
00000070: a731 43bd 8af8 a0bc 0c4c 483d c36c 4e3d
00000080: 8e31 bb3c 3563 ec3c b209 de3c b9e4 ad3c
00000090: 829f 7f3c 3366 d63c 9f6a 153c d009 b1bb
000000a0: 1d64 eebc 8aae d93b 19ce b93c 7ae2 5fbc
000000b0: 58cc 133d c221 03bd 3dcb d6bc 10c9 2d3c
000000c0: e01b d63a 76e3 373d fc0f 903d 4b85 343c
000000d0: 9bcf 263c 3120 6abc af90 863a adb1 f9bc
000000e0: 7f51 eb3c b309 153d 76a5 a6bc ae0f 22bc
000000f0: ff26 283d e646 233d c55d 023d 4505 093d

fc1.weight f4 [64, 1024]
-0.007556681 0.045600414 0.03982721 0.026192365 -0.03288322 0.059201047 0.017642293 -0.025213784
-0.050624464 0.019961564 0.069622785 0.055530485 -0.07771086 -0.061417695 -0.014327358 -0.051082574
-0.0028185179 -0.1115537 -0.009668438 0.122893654 0.02152446 0.00284315 -0.055394065 0.07510472
-0.038011108 0.03267626 -0.042354655 0.008278174 0.06584938 0.04923662 0.008257299 -0.054906406
0.042381335 -0.015669802 -0.048040766 -0.08584187 0.062235404 -0.046258535 0.01752908 -0.029683633
-6.0267554e-05 0.004046059 -0.018097613 -0.020627093 -0.00026881427 0.00982798 0.046865057 -0.014439489
0.009820813 -0.02746848 -0.007844506 0.06313159 0.019491807 -0.011291349 0.0067915265 0.068201944
-0.017634954 -0.0010201143 0.06522804 0.0585983 -0.06341493 -0.06482727 -0.009145359 0.03893373
-0.01808418 -0.01634498 0.0472814 -0.027856056 -0.019793281 0.016714096 0.0005836928 0.025723899
0.017681161 0.011021493 -0.01332429 0.0068733213 -0.028767927 0.01497103 0.024226721 0.0038382122
0.03009414 0.12582754 0.1126544 0.004727792 0.019267181 0.02357898 0.02594063 -0.024895528
-0.041292526 -0.038357984 -0.0104699945 -0.009124609 -7.508497e-07 -0.01940602 0.044889145 -0.04308317
-0.008930563 -0.021250008 -0.05654116 0.01688325 0.0028502792 -0.017269032 -0.050354857 -0.064787835
0.0035161595 -0.016094683 -0.034076855 -0.04968018 0.060641218 0.038136285 -0.0010557751 -0.035196196
0.027445333 0.025757812 0.021815661 -0.015193351 0.014230438 -0.00017657503 -0.025069907 0.013400141
0.011386372 0.014434025 0.02106097 0.02136759 -0.021001995 0.019248985 0.029741086 -0.008127786
-0.03634589 0.08278269 -0.016886858 0.11079859 0.06407127 0.018957326 0.057484534 0.07814958
0.0005017737 0.0380851 -0.07641468 -0.019395879 0.047361758 -0.094737045 -0.027529892 -0.0064722314
0.07307022 -0.0004406661 -0.051393926 -0.014632992 0.031750236 0.033956178 -0.042420916 0.023498027
0.026236653 -0.015450509 0.04296074 0.0751478 -0.008708293 -0.008437594 -0.020350728 0.0060174186
0.06730359 0.006212119 -0.10579881 -0.073045224 0.024543766 0.01819578 -0.0074528647 -0.048559915
0.012429452 0.04015841 0.0560266 -0.02108976 -0.055171832 -0.020880047 -0.0063899243 0.012204417
-0.0022884922 0.019445146 -0.013167122 -0.02410753 -0.014263627 0.090340495 0.023607926 -0.0070375702
0.062479515 0.099582255 0.10540174 0.06042143 -0.045733012 4.2549837e-05 0.014098302 0.0145274885
-0.042150352 0.023304714 0.029744817 0.05665917 -0.03761061 0.0029399872 0.0462913 0.051310472
-0.06702995 -0.05099829 0.017194366 -0.025467876 -0.07900601 -0.043228686 0.025346061 0.005330528
-0.0025318614 -0.011373365 -0.052652415 0.05385125 0.056110214 -0.025033768 -0.01194034 0.0098900255
0.010090608 0.018841578 -0.034224022 -0.037648913 0.02002486 -0.0077437446 -0.026102286 -0.046936173
0.094262116 -0.022641305 -0.028325833 -0.014796681 -0.0088719865 0.0037664138 0.03381081 -0.0035456922
0.010895403 -0.0084282225 0.0445732 -0.0067365794 -0.07039395 -0.038325563 0.03818401 0.007566751
0.010509287 -0.0150662195 0.013346921 0.07453163 0.04371707 0.028114617 0.0025584886 0.054884527
0.0026163673 -0.002181615 0.0011577609 -0.012082411 0.0023374986 -0.032911975 0.030668473 -0.062419128
00000000: 099e f7bb 80c7 3a3d db21 233d 5f91 d63c
00000010: 8eb0 06bd cc7c 723d 9286 903c 238d cebc
00000020: 995b 4fbd 6f86 a33c 6496 8e3d ef73 633d
00000030: df26 9fbd 1f91 7bbd 4cbd 6abc f63b 51bd
00000040: e2b6 38bb 4476 e4bd 5e68 1ebc abaf fb3d
00000050: 1054 b03c 2454 3a3b e3e4 62bd 81d0 993d
00000060: 89b1 1bbd 8bd7 053d 137c 2dbd 2ea1 073c
00000070: 0adc 863d 57ac 493d 9f49 073c 8ae5 60bd
00000080: 0d98 2d3d f55d 80bc 65c6 44bd ddcd afbd
00000090: 8dea 7e3d 9779 3dbd 2599 8f3c 172b f3bc
000000a0: cbc7 7cb8 ce94 843b 7241 94bc 26fa a8bc
000000b0: a4ef 8cb9 8905 213c 93f5 3f3d 9b93 6cbc
000000c0: 7ae7 203c 9405 e1bc 3e86 00bc 234b 813d
000000d0: 48ad 9f3c 5aff 38bc 748b de3b 76ad 8b3d
000000e0: 2e77 90bc 5bb5 85ba 4796 853d c504 703d
000000f0: b0df 81bd 29c4 84bd 6ad6 15bc fa78 1f3d
00000100: 4625 94bc e8e5 85bc 24aa 413d 6232 e4bc
00000110: 8525 a2bc 00ec 883c f602 193a edba d23c
00000120: 15d8 903c 7e93 343c 1f4e 5abc 9939 e13b
00000130: b7aa ebbc 0d49 753c 1e77 c63c 848a 7b3b
00000140: fc87 f63c efd8 003e 5ab7 e63d 98eb 9a3b
00000150: 35d6 9d3c b428 c13c 7281 d43c b5f1 cbbc
00000160: 5a22 29bd 431d 1dbd 578a 2bbc 627f 15bc
00000170: 008e 49b5 60f9 9ebc aedd 373d fa77 30bd
00000180: 7f51 12bc 7f14 aebc b497 67bd be4e 8a3c
00000190: c0cb 3a3b c977 8dbc e540 4ebd 7caf 84bd
000001a0: 5e6f 663b ffd8 83bc 2c94 0bbd 727d 4bbd
000001b0: ed62 783d cb34 1c3d ef61 8aba e329 10bd
000001c0: 09d5 e03c 0c02 d33c c2b6 b23c 88ed 78bc
000001d0: c826 693c 0027 39b9 685f cdbc 448c 5b3c
000001e0: e88d 3a3c b07c 6c3c 0e88 ac3c 160b af3c
000001f0: 600c acbc 0cb0 9d3c 94a3 f33c 682a 05bc
00000200: 6edf 14bd f989 a93d 4f56 8abc 5fea e23d
00000210: cc37 833d 654c 9b3c e774 6b3d e30c a03d
00000220: 7789 033a 1fff 1b3d 4d7f 9cbd 1be4 9ebc
00000230: 67fe 413d 7f05 c2bd 5e86 e1bc 0315 d4bb
00000240: d7a5 953d 3409 e7b9 7082 52bd 38bf 6fbc
00000250: 890c 023d a215 0b3d 8ec1 2dbd ef7e c03c
00000260: 40ee d63c 2224 7dbc 9af7 2f3d 17e7 993d
00000270: 3aad 0ebc d63d 0abc 92b6 a6bc c42d c53b
00000280: 77d6 893d 088f cb3b 0cad d8bd bc98 95bd
00000290: 0210 c93c 510f 953c 2937 f4bb c3e6 46bd
000002a0: e6a4 4b3c 257d 243d 267c 653d 6fc4 acbc
000002b0: dcfb 61bd a20c abbc 9262 d1bb 09f5 473c
000002c0: 87fa 15bb 6d4b 9f3c eaba 57bc 287d c5bc
000002d0: fdb1 69bc 7004 b93d 6965 c13c 6b9b e6bb
000002e0: 85ea 7f3d c8f1 cb3d dedc d73d 767c 773d
000002f0: 8a52 3bbd 8a77 3238 91fc 663c b404 6e3c
00000300: d9a5 2cbd 87e9 be3c 67ab f33c 7213 683d
00000310: 950d 1abd cdac 403b f29b 3d3d ee2a 523d
00000320: 0047 89bd 95e3 50bd 33db 8c3c 02a2 d0bc
00000330: e7cd a1bd 9010 31bd 8ba2 cf3c b6ab ae3b
00000340: 96ed 25bb 5a57 3abc 0faa 57bd 2193 5c3d
00000350: d3d3 653d 9e13 cdbc 6aa1 43bc c609 223c
00000360: 1453 253c a759 9a3c 7d2e 0cbd bf35 1abd
00000370: 2d0b a43c 3dbf fdbb 76d4 d5bc 2540 40bd
00000380: 7f0c c13d 427a b9bc 940b e8bc c76d 72bc
00000390: cf5b 11bc f0d5 763b 347d 0a3d d85e 68bb
000003a0: a282 323c 8716 0abc 6392 363d 86be dcbb
000003b0: b42a 90bd 44fb 1cbd d666 1c3d 82f2 f73b
000003c0: 252f 2c3c 4ed8 76bc 0bad 5a3c 0aa4 983d
000003d0: ac10 333d a050 e63c 51ac 273b 99ce 603d
000003e0: 5c77 2b3b 6df9 0ebb 02c0 973a 4ef5 45bc
000003f0: b830 193b b5ce 06bd 733c fb3c 33ab 7fbd

fc1.bias f4 [64]
0.026295789 0.02376846 -0.010406032 -0.037423734 0.013733423 0.023728123 0.017414667 -0.007679438
0.031455025 0.044926006 -0.01998695 0.016192852 0.043321148 -0.025730744 0.03083524 0.022018384
-0.003648495 0.00965133 0.021716064 0.01255571 0.011444769 0.01200276 0.010664604 0.01385471
-0.020276153 -0.03337364 0.011933919 0.0011492147 -0.03736146 -0.03627312 -0.001948502 0.039401893
-0.028025094 0.013939316 0.017801186 -0.0051717586 0.00588634 0.03239287 0.0024265486 0.015872404
0.015752489 -0.0019455589 0.014547809 -0.037259366 0.0085438 0.03603507 -0.023192117 0.056328785
0.005460819 0.0029912596 -0.019113453 0.014388802 0.019716086 0.028606394 0.006209942 -0.008445662
0.013245994 0.017433863 0.003989049 0.0023109606 -0.017893849 -0.044322442 -0.03245321 -0.00042772657
00000000: 446a d73c 13b6 c23c 107e 2abc a149 19bd
00000010: 2702 613c 7b61 c23c 34a9 8e3c cca3 fbbb
00000020: fcd6 003d 5504 383d acbb a3bc dfa6 843c
00000030: 8471 313d 48c9 d2bc 2f9a fc3c e65f b43c
00000040: 971b 6fbb 9d20 1e3c e3e5 b13c 77b6 4d3c
00000050: d782 3b3c 39a7 443c 97ba 2e3c defe 623c
00000060: 2d1a a6bc ccb2 08bd 7c86 433c 3fa1 963a
00000070: 5508 19bd 2093 14bd e164 ffba e163 213d
00000080: e294 e5bc bb61 643c cbd3 913c db77 a9bb
00000090: 33e2 c03b 63ae 043d bb06 1f3b d806 823c
000000a0: 5d0b 813c 2002 ffba ef59 6e3c 479d 18bd
000000b0: 4bfb 0b3c 8299 133d 65fd bdbc 03b9 663d
000000c0: acf0 b23b 0209 443b d193 9cbc 03bf 6b3c
000000d0: a183 a13c f557 ea3c c57c cb3b ad5f 0abc
000000e0: ba05 593c 76d1 8e3c 91b6 823b 7c73 173b
000000f0: 1f96 92bc 738b 35bd a8ed 04bd 7d40 e0b9

fc2.weight f4 [10, 64]
-0.076785155 -0.07683332 -0.02839793 -0.027410977 0.10192786 0.06249748 -0.082972966 0.08743089
-0.068369545 0.14638482 -0.096346006 0.012283635 -0.043457363 -0.072935365 -0.18353443 0.03251696
-0.1398685 0.002174032 -0.02756944 -0.016421266 -0.011888937 -0.06495875 0.11669666 0.047985304
0.11217972 0.10112224 -0.07427644 -0.07810877 0.100093685 0.057774723 0.009789385 -0.14655268
-0.0029469987 0.07885577 0.010764176 -0.045801938 -0.13114515 -0.19537956 0.09585273 -0.0800165
-0.11016456 -0.03530291 -0.09734759 -0.08476014 0.10827574 -0.16623372 -0.080950744 -0.17894554
0.0069224816 0.12979533 0.15698881 0.0840255 0.039147608 0.013539471 -0.03182612 0.07573221
0.026734719 0.07313022 0.0008537981 0.044511758 0.09397101 0.113061525 0.04848208 0.12653638
-0.001179725 -0.108013615 0.124197 -0.014023262 -0.09702313 0.12747428 -0.030694008 -0.106564425
-0.04004139 0.078398794 0.14679092 -0.13832901 0.14916004 -0.15822065 -0.0017789378 -0.03809963
-0.14719829 -0.15561764 -0.079487786 0.13863882 -0.041672777 -0.055132877 -0.0036889727 0.10182648
-0.13574728 -0.07739872 0.044154793 -0.026060963 -0.17491627 -0.08115607 0.06447644 0.11050567
0.021808133 0.030054303 0.0178121 -0.036279384 -0.0884533 0.045609348 0.05547592 0.021504276
0.12224567 0.014402227 -0.10714553 -0.008105441 0.07789209 0.081 -0.054715317 0.07491573
0.13556248 0.0877848 0.12217281 0.08748851 -0.17759117 -0.03869849 -0.18630326 -0.0066611785
0.06998359 0.027229358 -0.09404468 -0.018422395 -0.010982291 0.05722832 -0.020242682 -0.14402765
-0.1839014 -0.09628387 0.13443701 0.0637428 -0.12701747 -0.01453455 0.0069151106 0.11815872
-0.00030384885 0.08312041 0.1275315 -0.11545917 0.024921047 0.093226366 0.05282103 -0.061742693
0.031688046 -0.063779004 -0.072164185 0.069400325 -0.11750917 0.12429675 0.05039984 0.053063773
-0.14044838 0.046016563 0.061946467 0.029104017 -0.0144686615 -0.100755475 0.051282156 -0.20121603
-0.104385 -0.092113666 -0.09764948 -0.033138525 0.16718574 -0.09093412 -0.12855975 -0.13315368
-0.2085548 0.13122159 0.10267347 -0.04548287 0.11378868 -0.041147023 -0.0043619536 -0.003603075
0.09055993 -0.081312545 -0.0014067781 0.09331217 -0.044708706 0.0859159 -0.00993231 0.03372198
0.057517216 0.061590854 -0.06639731 0.16054277 -0.05060017 -0.0035936297 0.113563284 0.046090577
-0.06905621 0.027833564 0.05628307 0.08242909 -0.08068911 0.035289515 -0.09998403 -0.053646777
0.07882183 -0.013790731 -0.06838899 0.0051853773 -0.03767231 0.02457344 0.021162476 0.0025087208
-0.17467941 0.14106107 -0.017865503 0.1345428 -0.08594794 -0.110439956 -0.11493589 0.09655369
0.053841107 0.086159736 0.11741961 -0.16662316 -0.039319027 0.0393969 -0.027078832 0.06036754
-0.0874251 -0.13133445 0.076417886 0.04252812 0.045981802 -0.15924665 -0.20238896 0.12003911
0.11573086 0.023744259 0.07142493 0.060179546 -0.02210446 0.1318535 -0.09018273 -0.12699743
-0.03672333 -0.16848026 0.005616551 0.109370776 0.08643539 -0.09908626 0.12498607 -0.094487764
-0.010975331 -0.16072434 0.066372596 0.012494905 -0.078195944 0.048623376 0.15891701 0.10703237
00000000: 8941 9dbd ca5a 9dbd c7a2 e8bc fc8c e0bc
00000010: 8ebf d03d 5cfd 7f3d bbed a9bd f70e b33d
00000020: 5505 8cbd e7e5 153e 0e51 c5bd 4d41 493c
00000030: 5900 32bd 235f 95bd 73f0 3bbe 8130 053d
00000040: b039 0fbe 347a 0e3b 4ed9 e1bc e485 86bc
00000050: d1c9 42bc 1809 85bd a9fe ee3d 3d8c 443d
00000060: 7bbe e53d 2d19 cf3d 3f1e 98bd 7ef7 9fbd
00000070: ebfd cc3d 30a5 6c3d a863 203c e811 16be
00000080: 6f22 41bb 227f a13d 3a5c 303c d09a 3bbd
00000090: ea4a 06be 9411 48be 704e c43d b1df a3bd
000000a0: f59d e1bd c999 10bd 2c5e c7bd b996 adbd
000000b0: acbf dd3d 2c39 2abe 81c9 a5bd 803d 37be
000000c0: fcd5 e23b 11e9 043e adc1 203e 9015 ac3d
000000d0: 3e59 203d a8d4 5d3c 1b5c 02bd 7d19 9b3d
000000e0: c502 db3c 4cc5 953d 6cd1 5f3a f651 363d
000000f0: df73 c03d cd8c e73d 2595 463d c192 013e
00000100: 01a1 9aba 3e36 ddbd ff5a fe3d d3c1 65bc
00000110: 10b4 c6bd 9e88 023e 0072 fbbc 733e dabd
00000120: 7102 24bd 8c8f a03d 5c50 163e 1fa6 0dbe
00000130: 69bd 183e 9804 22be 3f2b e9ba 5c0e 1cbd
00000140: 26bb 16be 3b5a 1fbe 7eca a2bd 56f7 0d3e
00000150: 13b1 2abd 03d3 61bd b1c2 71bb 678a d03d
00000160: 5601 0bbe 3883 9ebd a8db 343d cd7d d5bc
00000170: 401d 33be 2735 a6bd 390c 843d cc50 e23d
00000180: f8a6 b23c 7134 f63c aeea 913c b199 14bd
00000190: 0127 b5bd ded0 3a3d b83a 633d bc29 b03c
000001a0: f05b fa3d 51f7 6b3c 1e6f dbbd afcc 04bc
000001b0: e385 9f3d 54e3 a53d 2b1d 60bd 6b6d 993d
000001c0: e4d0 0a3e 84c8 b33d bd35 fa3d 2d2d b33d
000001d0: 76da 35be 4f82 1ebd 48c6 3ebe 0446 dabb
000001e0: 8e53 8f3d 1a10 df3c 7f9a c0bd 90ea 96bc
000001f0: 11ef 33bc 3e68 6a3d fbd3 a5bc fc7b 13be
00000200: a650 3cbe 7a30 c5bd dba9 093e 968b 823d
00000210: de10 02be 5222 6ebc 2798 e23b 33fd f13d
00000220: e74d 9fb9 093b aa3d 9e97 023e db75 ecbd
00000230: 3927 cc3c 77ed be3d dd5a 583d e8e5 7cbd
00000240: 53cb 013d 919e 82bd d1ca 93bd c221 8e3d
00000250: a6a8 f0bd 4b8f fe3d 1070 4e3d 6659 593d
00000260: b3d1 0fbe dd7b 3c3d 94bb 7d3d 8c6b ee3c
00000270: f70d 6dbc e358 cebd 3d0d 523d 930b 4ebe
00000280: cec7 d5bd 17a6 bcbd 73fc c7bd 43bc 07bd
00000290: bd32 2b3e ab3b babd 2ba5 03be 7059 08be
000002a0: 648f 55be f45e 063e 7846 d23d 3f4c 3abd
000002b0: 0a0a e93d c889 28bd b8ee 8ebb 9121 6cbb
000002c0: 7c77 b93d 3187 a6bd a463 b8ba 731a bf3d
000002d0: 7a20 37bd adf4 af3d 21bb 22bc 0f20 0a3d
000002e0: 2c97 6b3d b146 7c3d 50fb 87bd 5365 243e
000002f0: 2042 4fbd 1a83 6bbb de93 e83d 79c9 3c3d
00000300: 586d 8dbd 3703 e43c 1489 663d 95d0 a83d
00000310: 5540 a5bd bd8b 103d 6dc4 ccbd b9bc 5bbd
00000320: 576d a13d 85f2 61bc 870f 8cbd 19ea a93b
00000330: 484e 1abd 3d4e c93c ee5c ad3c 5a69 243b
00000340: 29df 32be 5072 103e ad5a 92bc 96c5 093e
00000350: 7905 b0bd 582e e2bd 8263 ebbd f1bd c53d
00000360: 7e88 5c3d 8474 b03d b179 f03d 439f 2abe
00000370: fd0c 21bd a55e 213d 6dd4 ddbc f443 773d
00000380: ee0b b3bd 8a7c 06be fb80 9c3d f731 2e3d
00000390: 6a57 3c3d 8e11 23be 0d3f 4fbe 11d7 f53d
000003a0: 4d04 ed3d 5283 c23c 3c47 923d d47e 763d
000003b0: 6a14 b5bc 9b04 073e b9b1 b8bd 9d0b 02be
000003c0: 346b 16bd 1786 2cbe 0b0b b83b c9fd df3d
000003d0: 0a05 b13d bded cabd b2f8 ff3d cd82 c1bd
000003e0: e0d1 33bc ec94 24be 5bee 873d 6eb7 4c3c
000003f0: 3225 a0bd 4e29 473d 24bb 223e ca33 db3d

fc2.bias f4 [10]
-0.007654011 0.13155912 0.036097877 0.043734696 0.11384477 -0.02855732 0.103039265 0.090304315
-0.11335318 0.04658209
00000000: 7fce fabb 6fb7 063e 5edb 133d 2723 333d
00000010: 7227 e93d 0af1 e9bc 4006 d33d 78f1 b83d
00000020: b625 e8bd ddcc 3e3d
